app/src/main/java/com/app/exoplanethunter/models/habitable_model.tflite (tflite, 9760 bytes, 7 tensors)

arith.constant f4 [64]
000000 0d 92 02 bf 45 00 6f be ce 9e ba 3d ee 53 0f be
       -0.51004106 -0.23339947 0.09112321 -0.1399686
000010 8c a5 20 bc 75 16 fc bc ab 7b cb be d7 f9 4b be
       -0.009805094 -0.030772427 -0.3974279 -0.19919525
000020 fc a9 cb 3d 2a 56 04 be 58 a0 85 bd 1d b3 ee bd
       0.09944531 -0.12923494 -0.06524724 -0.11655257
000030 a1 43 ce bd 53 8a 13 bf a9 c5 91 bd 8c b1 75 bc
       -0.10071493 -0.5763294 -0.07117779 -0.014995944
000040 f0 5f 36 bd fe 4f 66 be 24 48 91 bd 5b 7c ba be
       -0.044525087 -0.22491452 -0.07093838 -0.36423
000050 e1 90 e5 bd 4b ea 1d be f3 cf f2 bd c3 ee b5 be
       -0.11209274 -0.15421407 -0.118560694 -0.35533723
000060 bb fa f6 3b 2a 24 c2 be 2a 5b 84 bd ee 72 13 bd
       0.0075372136 -0.37918216 -0.06462701 -0.035998277
000070 59 a7 96 bd 07 75 9e 3d 06 31 12 be 15 18 89 bd
       -0.07356138 0.07737165 -0.14276513 -0.066940464
000080 cf e2 c3 be d6 59 c4 be 51 f6 02 bf a3 01 5f bd
       -0.3825898 -0.3834979 -0.511571 -0.05444492
000090 c2 c7 af 3d 0c e8 2c 3c c8 ba 4c be ea 0d f6 be
       0.08583023 0.010553371 -0.19993126 -0.4805749
0000a0 4f 17 f4 bd f1 c3 7a 3d ef 9e 08 bf 96 03 31 be
       -0.11918508 0.06122202 -0.53367513 -0.17286524
0000b0 80 41 85 bd 4c c1 62 bd 8e 0d ba 3d bc 82 74 be
       -0.06506634 -0.055360124 0.090846166 -0.23877996
0000c0 49 6f 02 be 73 11 5b bd 27 09 f0 be bd 7f 46 be
       -0.12737764 -0.053483438 -0.46881983 -0.19384666
0000d0 43 81 4a be df 14 2c 3c 9a ec a3 bd df d7 f8 bc
       -0.19775872 0.010503023 -0.080041125 -0.030376373
0000e0 ba 54 ba bd 43 fe 2a bc 23 de 29 3e 90 78 df bc
       -0.090981916 -0.010436597 0.16588645 -0.027279168
0000f0 c4 51 a4 3b bd ce b5 bd f4 a1 ad be d9 03 a5 bd
       0.00501463 -0.08877323 -0.33912623 -0.080573745

arith.constant1 f4 [1, 16]
000000 7b d9 47 bf 10 9b ac 3e c8 82 fb 3d 36 b5 8c 3d
       -0.78066224 0.33712053 0.12280804 0.06870501
000010 11 e5 1c 3e 41 23 cf be c7 3c d0 be c6 21 ad 3e
       0.15321757 -0.40456584 -0.4067137 0.3381483
000020 d5 51 ee 3d 8d 14 a8 be f2 66 b8 3e b7 7c 10 bf
       0.11636702 -0.3282818 0.3601604 -0.564403
000030 27 0a 48 bf ab 90 0c 3f 40 b3 01 bf 6c 92 21 bf
       -0.7814049 0.54908246 -0.5066414 -0.6311405

arith.constant3 f4 [32]
000000 47 03 07 3c 6f de 8b 3e 27 37 1c 3e b4 93 c3 3d
       0.0082405275 0.2731814 0.15255414 0.095496565
000010 fe 0a e1 3e 83 75 86 3e 59 fe 33 3e 90 f6 f5 3e
       0.439537 0.2626153 0.17577495 0.48039675
000020 2b ed ce 3e d2 43 73 3e 08 67 a9 3d 5e bb b0 3e
       0.4041532 0.2375634 0.08271605 0.3451795
000030 b5 1e fe 3c 3e b4 34 3f db ff a3 3d e9 74 e5 3e
       0.031020502 0.7058753 0.08007785 0.44815758
000040 7a c4 73 3d 7e 66 aa 3e 59 82 a3 3d 4b e8 a2 ba
       0.059513547 0.3328132 0.07983846 -0.0012428848
000050 7e 2e 2d 3d e3 aa aa bc 7d bc 4d 3e eb d5 ad 3e
       0.042280667 -0.020833438 0.20091434 0.3395227
000060 7e 62 32 3f 01 af e4 3e f2 ff df 3d 08 7c 47 3f
       0.6968154 0.44664767 0.109374896 0.7792363
000070 a7 17 30 3e ce 2b 34 3f ab 56 77 bd a2 b8 02 be
       0.17196523 0.7037934 -0.060385387 -0.12765744

arith.constant4 f4 [16, 32]
000000 f5 35 2f 3f eb 55 a3 bf 0a 6a 85 bf e0 c6 5c 3e
       0.68441707 -1.2760595 -1.0422986 0.2156024
000010 a9 03 5a 3c ec 43 26 3e d8 35 9c be 35 43 3d 3f
       0.013306537 0.16236848 -0.3050983 0.73930675
000020 ab 6a f6 bc 3d b4 09 bf b5 c3 ab 3d 3f cf 74 3f
       -0.03008016 -0.53790647 0.083869375 0.9562873
000030 31 a5 b6 bf b6 63 06 3f 06 2c c4 bf 84 0a 2e bf
       -1.4269162 0.52495897 -1.5325935 -0.67984796
000040 f9 33 39 bf 32 26 90 bf 53 6b a5 bf 9a af c2 bf
       -0.7234493 -1.1261656 -1.2923378 -1.5209839
000050 de d6 5d bf 9b 69 c9 bf 87 ae bd bf 9f ad 4c 3f
       -0.86655986 -1.5735353 -1.4818887 0.79952425
000060 29 40 a9 3e e6 25 0b 3f b6 87 3a bf 8f bf c1 3f
       0.33056763 0.54354703 -0.7286333 1.5136584
000070 3a 70 09 bf 7e 05 3b bf c8 42 86 bf 9b 3c 9a bf
       -0.5368687 -0.73055255 -1.048913 -1.2049745
000080 de 54 eb 3b fc 0b 55 3e 7b a8 0b bf 5a af 33 bf
       0.007181748 0.20805353 -0.54553956 -0.7018944
000090 f5 49 a3 bf a5 ad 45 bf 4a e2 b3 be eb c5 46 bf
       -1.2756945 -0.77218086 -0.35133582 -0.7764575
0000a0 34 66 3a 3e 28 5c e5 bd ea 7a 7d 3e f9 3c 9c be
       0.1820305 -0.11199218 0.24753919 -0.30515268
0000b0 f2 25 fc bd 15 83 8b 3d cc 1e 22 bf a2 41 f3 3e
       -0.12311925 0.06812111 -0.6332824 0.4751101
0000c0 ec 36 4f be ec c2 bd be cc 36 1f bf ab 26 6e 3f
       -0.20235795 -0.37062776 -0.6219299 0.9302775
0000d0 21 3d cd be d0 84 16 3f de b0 0c 3e 6c bf 1a bf
       -0.400857 0.58796406 0.13739344 -0.60448337
0000e0 75 dc c5 be c6 18 9c be 5e be 99 3c d1 e3 72 bf
       -0.38644758 -0.3048765 0.018767532 -0.9487887
0000f0 64 af 9c 3e d3 a5 4c be 5b 3e 44 3f 3e 9c 3d bd
       0.30602562 -0.19985132 0.76657647 -0.046291582
000100 59 c7 c1 3d 8e ed 41 bf 33 12 13 be 11 63 f3 3d
       0.09461851 -0.75753105 -0.14362411 0.1188413
000110 39 c5 77 bf db 9b 73 bf 55 12 d3 3e 9a a2 ef 3c
       -0.9678531 -0.9515969 0.41224924 0.02925234
000120 05 e3 ff be 09 64 11 3f 94 ab 4c bc 91 2d 5d bf
       -0.4997789 0.56793267 -0.012492079 -0.86397654
000130 5e 4c 9c bd 2a 71 2d 3e 58 dc ec be 47 53 3d be
       -0.076317534 0.169377 -0.4626186 -0.18488799
000140 fa c4 d9 3e 42 3f 12 c0 09 bb 34 3f 8f 40 83 3f
       0.42533094 -2.285111 0.70597893 1.0254077
000150 28 4b 20 3f f7 b7 5c bf 35 65 10 bf 87 71 35 bf
       0.6261468 -0.8621821 -0.5640443 -0.70876354
000160 0d 92 a4 3e fe 1b 84 be d0 94 5a bf 7f 03 5c 3e
       0.32142678 -0.25802606 -0.8538332 0.21485709
000170 3d cc 46 bf 26 10 18 bf 32 af 89 3e 72 a7 d5 3d
       -0.7765539 -0.5939964 0.26891476 0.10432328
000180 d8 25 b3 3d 19 9f bd be 19 c5 fb be d4 0b 03 bd
       0.087474525 -0.37035444 -0.4917381 -0.031993702
000190 82 b9 b7 bf 4c c8 82 3e 3c 81 19 bf 44 18 2a 3f
       -1.4353487 0.2554344 -0.5996282 0.66443276
0001a0 59 f9 0e bf 98 50 ba 3e c9 4f ba be 41 2a 30 bf
       -0.55849224 0.36389613 -0.36388996 -0.68814474
0001b0 d2 2b ad bb 5a 64 b3 be e5 85 84 3d 4c da 1b 3f
       -0.005284765 -0.350375 0.06470851 0.6087997
0001c0 9a 00 ee bc 8d ec cb 3e 16 24 08 bf d1 32 d6 3e
       -0.029053021 0.3982891 -0.5318006 0.41835645
0001d0 34 ba a1 bd 45 f6 57 3f 2a af 13 bf 73 b7 10 bf
       -0.078968436 0.8436015 -0.57689154 -0.5652992
0001e0 b3 71 15 bf 4d b7 26 bf 97 93 d0 3c b4 9b 19 bf
       -0.58376616 -0.65123445 0.025461001 -0.6000321
0001f0 44 1c 32 3e d6 37 21 3e 13 f5 51 3d 29 1f 90 bd
       0.17393595 0.15743956 0.05125911 -0.07037193
000200 b7 87 79 bf ef 9d 40 3f 85 6a 20 3e 66 e7 d4 be
       -0.9747271 0.7524099 0.15665634 -0.41582793
000210 4d b7 da be 9f 60 b4 bf b0 36 66 be 5b 65 80 bf
       -0.42717972 -1.4091986 -0.22481799 -1.0030931
000220 78 a2 ab 3e 21 92 5b bf a8 07 9a 3e 76 6b 91 bf
       0.3352239 -0.8576985 0.30083966 -1.136092
000230 22 e8 81 be d2 cb 9a be f3 d6 24 3f 39 b6 0b 3f
       -0.25372416 -0.30233628 0.64390486 0.54574925
000240 64 5b a6 3e 64 6f 1c 3f a3 41 58 bf 63 12 e2 be
       0.324916 0.6110747 -0.84475154 -0.44154653
000250 72 b5 94 3e f9 a3 38 bf c3 2e 2c bd a1 0d a7 bd
       0.29044682 -0.721252 -0.042036783 -0.081568964
000260 10 14 96 bf cc e2 8b bf 24 ab f4 3e a8 78 2b be
       -1.1724873 -1.0928588 0.4778682 -0.16745245
000270 aa 57 0e bf ea 26 67 3e 33 e1 1b 3f 13 17 80 3e
       -0.55602515 0.22573438 0.608905 0.25017604
000280 18 df b7 bf 73 45 f2 3e d6 9d 98 be c5 82 01 3e
       -1.4364958 0.4731861 -0.2980792 0.12647541
000290 5e 9b aa 3f e3 44 8e 3f 99 42 66 bf 31 8a 8b 3f
       1.3328664 1.1114773 -0.8994537 1.0901548
0002a0 85 b6 e6 3d e5 6c c8 3e f3 6e 70 bf 09 1d 30 3f
       0.112652816 0.3914558 -0.93919295 0.68794304
0002b0 4b 1c b2 bc 71 9d cd 3e db f8 5e be 85 71 5b 3f
       -0.021742007 0.4015918 -0.21774618 0.8572009
0002c0 7a a3 67 be f5 36 10 bf 65 fe 63 bf a9 25 ce be
       -0.22620955 -0.5633386 -0.8906005 -0.40263107
0002d0 12 29 77 bf e7 eb b6 3e f9 be 09 bf ee e8 a0 bd
       -0.96547043 0.35726854 -0.53807026 -0.07856928
0002e0 07 dd 69 3f a2 f9 53 bf 90 20 f1 3b 28 1e 72 3e
       0.91352886 -0.82802784 0.007358618 0.23644316
0002f0 f2 24 88 bf 0e 10 9b 3f 8f 49 9a bf 52 af 36 bf
       -1.0636275 1.2114275 -1.2053698 -0.7136127
000300 7c 35 13 3e 9a 50 b5 bf 63 76 80 bf 74 4c 2d bf
       0.14375871 -1.4165223 -1.0036129 -0.67694783
000310 8a 81 51 3d c7 47 18 bf 63 c4 8a 3f cf 77 79 bf
       0.05114893 -0.59484524 1.0841182 -0.9744844
000320 4d aa 93 bf 9c 37 a7 bf dd 33 2a bd 70 1c a7 3e
       -1.1536347 -1.3063846 -0.041553367 0.32638884
000330 24 27 73 bf 78 57 b4 bf 22 09 dc bf 0d d2 b1 3e
       -0.949816 -1.4089193 -1.7190287 0.3473057
000340 fa f0 5c 3d 12 1d 4e bf 05 e2 f3 be a9 75 3b bf
       0.05394075 -0.8051311 -0.47633377 -0.7322641
000350 b1 4d 88 bf cf 14 f5 bc cb f1 7a bf 8d 42 23 3e
       -1.064871 -0.029917149 -0.98025197 0.15943356
000360 45 13 7c be 2e 0c 23 3f 3b 07 cb bf af 00 17 40
       -0.24616726 0.6369046 -1.5861582 2.3594167
000370 ea 0e 6f 3f 15 cb 97 3e 3c f4 dc bf 1e bd 5f bf
       0.9338213 0.29647127 -1.7262034 -0.87397945
000380 12 c2 a6 be b3 7f 66 3f ab 69 8c 3d ab 1f 25 bf
       -0.3256994 0.90038604 0.06856092 -0.64501446
000390 56 f1 78 bf 47 88 fe 3e 2a a2 f9 be b5 f4 05 3f
       -0.9724325 0.49713346 -0.48756534 0.5232652
0003a0 c6 0e bd 3e e4 f1 7d be 18 83 47 3d 41 a5 89 3d
       0.36925334 -0.24799305 0.048709005 0.06720973
0003b0 37 02 ff 3e 66 55 49 3e 53 ec 98 3d 49 49 0c bd
       0.49806377 0.19661483 0.0746695 -0.034249578
0003c0 b7 5f fa be 6b d4 73 3f 68 28 3d bf b7 b9 a2 3e
       -0.4890115 0.95246 -0.7388978 0.31782314
0003d0 b2 40 19 3f df 8d 29 be f0 f4 03 3e 03 aa 46 be
       0.5986434 -0.16558026 0.12886405 -0.19400792
0003e0 86 bc e9 be bd 69 c5 be 9b d5 94 be e3 21 9b 3d
       -0.45651644 -0.38557234 -0.29069218 0.07574823
0003f0 db f2 09 bf 52 88 05 bf 4d 94 02 be 31 94 06 bf
       -0.53886193 -0.52161133 -0.12751885 -0.5256987

arith.constant5 f4 [16]
000000 74 13 81 40 0c e6 f1 3f 13 6b e9 3f 26 85 c7 3f
       4.0336246 1.889833 1.8235801 1.5587509
000010 0a 02 02 40 9a 76 bb 3e 76 1f a3 40 91 0d 09 3f
       2.0313745 0.36613923 5.0975904 0.53536326
000020 37 e6 1b 40 98 0f 9c bf 2b 0e e1 3f 36 11 26 40
       2.4359262 -1.2192259 1.7582449 2.5948005
000030 e5 aa fc 3f 3f 19 27 40 42 1f bb 3f 4d 31 83 bf
       1.9739653 2.610916 1.4618914 -1.024942

tfl.pseudo_qconst i1 [32, 64]
000000 7f f6 f6 ee 02 f0 f9 25 f6 09 f3 ff 16 02 fa 0a
       127 -10 -10 -18 2 -16 -7 37 -10 9 -13 -1 22 2 -6 10
000010 fe 13 f7 12 02 fc fe 11 ec 17 06 0c db fb 0a 0e
       -2 19 -9 18 2 -4 -2 17 -20 23 6 12 -37 -5 10 14
000020 32 0c 0b 03 f9 f9 50 16 07 0a 69 1a 11 f2 e4 02
       50 12 11 3 -7 -7 80 22 7 10 105 26 17 -14 -28 2
000030 f9 f2 24 e1 00 04 f6 f7 07 eb ed e8 05 0e 00 0d
       -7 -14 36 -31 0 4 -10 -9 7 -21 -19 -24 5 14 0 13
000040 81 12 f5 cd 05 0c 11 b0 09 d2 dc 0e 1b 25 fb e0
       -127 18 -11 -51 5 12 17 -80 9 -46 -36 14 27 37 -5 -32
000050 0e 06 db 1b 0f 0b df 10 eb d4 bd f7 2c f6 ba fe
       14 6 -37 27 15 11 -33 16 -21 -44 -67 -9 44 -10 -70 -2
000060 06 e6 3d f1 d5 f3 4b 1c 13 fc dc 08 0c 10 e4 ff
       6 -26 61 -15 -43 -13 75 28 19 -4 -36 8 12 16 -28 -1
000070 14 fc f2 01 fc f5 d6 f2 fd 00 f5 01 da ce e8 06
       20 -4 -14 1 -4 -11 -42 -14 -3 0 -11 1 -38 -50 -24 6
000080 f3 2f e8 a1 db f7 1c 2a 05 cf da 13 1e e8 c3 ce
       -13 47 -24 -95 -37 -9 28 42 5 -49 -38 19 30 -24 -61 -50
000090 d5 04 e7 f3 f7 eb 09 3c bd 58 e5 e1 ca f6 81 e9
       -43 4 -25 -13 -9 -21 9 60 -67 88 -27 -31 -54 -10 -127 -23
0000a0 21 72 1d 02 ee 07 4f e5 44 ec 48 3b 29 06 f0 fa
       33 114 29 2 -18 7 79 -27 68 -20 72 59 41 6 -16 -6
0000b0 d9 e1 eb fd 01 13 9b 0d f0 24 24 ee c7 c5 0f f6
       -39 -31 -21 -3 1 19 -101 13 -16 36 36 -18 -57 -59 15 -10
0000c0 81 ec 09 0a 15 09 f0 bb 01 2f 10 03 f4 0a 20 00
       -127 -20 9 10 21 9 -16 -69 1 47 16 3 -12 10 32 0
0000d0 15 12 06 07 0f 18 08 0f 00 ba 04 f3 fb 00 ed 04
       21 18 6 7 15 24 8 15 0 -70 4 -13 -5 0 -19 4
0000e0 b4 f0 22 07 03 f9 e2 07 05 ff e5 d9 fe 04 0c f6
       -76 -16 34 7 3 -7 -30 7 5 -1 -27 -39 -2 4 12 -10
0000f0 1e fc fe 0c ff 09 11 05 02 f6 fa 02 fc 0d 0f f7
       30 -4 -2 12 -1 9 17 5 2 -10 -6 2 -4 13 15 -9

sequential_1/dense_1/MatMul i1 [64, 20]
000000 ee c0 fb fe ec d3 32 ec bb fc 02 01 23 ed 05 ef
       -18 -64 -5 -2 -20 -45 50 -20 -69 -4 2 1 35 -19 5 -17
000010 7f 0d e7 e6 17 ed fd f9 fa dc 05 d1 1e 21 0a f6
       127 13 -25 -26 23 -19 -3 -7 -6 -36 5 -47 30 33 10 -10
000020 fe fd ff f1 08 06 81 1e e5 f8 fe f6 f4 3b e3 fd
       -2 -3 -1 -15 8 6 -127 30 -27 -8 -2 -10 -12 59 -29 -3
000030 7f e9 3d 2f ae 02 fe d1 82 15 cd ea 2e dc ec d4
       127 -23 61 47 -82 2 -2 -47 -126 21 -51 -22 46 -36 -20 -44
000040 ef cd f8 05 d1 ee e3 06 12 fb f0 0c fc 0d 7f 10
       -17 -51 -8 5 -47 -18 -29 6 18 -5 -16 12 -4 13 127 16
000050 e9 dc 02 0c fd 4d 4c 33 1c 3a 04 ab 0e 2f ff 45
       -23 -36 2 12 -3 77 76 51 28 58 4 -85 14 47 -1 69
000060 dc 7f cc e1 0e 30 f0 27 65 ef f8 15 c0 d2 7f e9
       -36 127 -52 -31 14 48 -16 39 101 -17 -8 21 -64 -46 127 -23
000070 62 00 f9 00 52 1b 53 67 7f f2 00 e7 06 ae 28 a5
       98 0 -7 0 82 27 83 103 127 -14 0 -25 6 -82 40 -91
000080 b6 03 1b e6 f3 ab f7 2c 76 e9 26 02 e9 81 fd 0b
       -74 3 27 -26 -13 -85 -9 44 118 -23 38 2 -23 -127 -3 11
000090 fa df 03 48 89 5c 1d ff 30 f2 fe fe 7d 16 a4 d7
       -6 -33 3 72 -119 92 29 -1 48 -14 -2 -2 125 22 -92 -41
0000a0 48 7f fc f5 27 ba ff 2e b0 89 57 b7 d1 f9 fd f6
       72 127 -4 -11 39 -70 -1 46 -80 -119 87 -73 -47 -7 -3 -10
0000b0 f2 ed c5 b8 02 e3 ff 18 ee 4f 10 0f d0 52 ab d7
       -14 -19 -59 -72 2 -29 -1 24 -18 79 16 15 -48 82 -85 -41
0000c0 3e 1a fc ec 25 e2 fc 81 a0 81 f8 26 46 59 36 e6
       62 26 -4 -20 37 -30 -4 -127 -96 -127 -8 38 70 89 54 -26
0000d0 18 2a 57 02 11 13 e9 46 97 71 d2 ff 2b 4f 07 33
       24 42 87 2 17 19 -23 70 -105 113 -46 -1 43 79 7 51
0000e0 3a 06 1a ca fe ca 44 b2 0c c0 0a 0f 1e 12 81 d5
       58 6 26 -54 -2 -54 68 -78 12 -64 10 15 30 18 -127 -43
0000f0 c0 ba 00 fd b2 e5 12 81 ed a7 3c 12 2e 19 fe fc
       -64 -70 0 -3 -78 -27 18 -127 -19 -89 60 18 46 25 -2 -4
