app/src/main/java/com/app/exoplanethunter/models/planet_type_model.tflite (tflite, 57608 bytes, 8 tensors)

arith.constant f4 [256]
0	0xbe69845d	-0.22804399
1	0xbde972ab	-0.11398824
2	0xbe8e1074	-0.27746928
3	0xbf16c48a	-0.58893645
4	0xbe7854ea	-0.24251142
5	0xbcaf9a0b	-0.021435758
6	0xbc38addc	-0.01127192
7	0xbe638e6c	-0.22222298
8	0xbe0ab024	-0.13543755
9	0xbc41ad64	-0.011821125
10	0xbeb45bce	-0.3522629
11	0xbe97eb03	-0.29671487
12	0xbe69a4bb	-0.22816746
13	0x3d2221d2	0.039583035
14	0xbda954e5	-0.082681455
15	0xbdd685e2	-0.10474755
16	0xbecea7e4	-0.40362465
17	0xbdbc7f93	-0.0920402
18	0xbe2ef97f	-0.17087363
19	0xbe91776f	-0.28411433
20	0x3c8dd012	0.01731113
21	0xbda9683a	-0.08271833
22	0xbe83d9dd	-0.25752154
23	0xbea2986f	-0.31756923
24	0x3c8236eb	0.015895328
25	0xbe122d86	-0.14275178
26	0xbe3f1329	-0.18659653
27	0xbe201e3c	-0.15636533
28	0xbf007780	-0.5018234
29	0xbe48ff7e	-0.19628713
30	0xbe0aeaca	-0.13566127
31	0xbed3ad0f	-0.4134297
32	0xbed894e7	-0.42301103
33	0xbec1bf8c	-0.3784145
34	0xbe3940f8	-0.1809119
35	0xbe3b314b	-0.18280523
36	0x3e548fb6	0.20757946
37	0xbe6ec848	-0.23318589
38	0xbd8edd0b	-0.06975754
39	0xbe2e62a2	-0.17029813
40	0x3cb58ced	0.022161925
41	0xbe0a27e3	-0.13491778
42	0x3d49861b	0.04920016
43	0xbe2a94bc	-0.166583
44	0xbe92ba0b	-0.28657565
45	0xbe86b61f	-0.26310822
46	0xbe464e66	-0.19365844
47	0xbed76279	-0.42067316
48	0xbe0df7f9	-0.13864125
49	0xbebce42d	-0.36892834
50	0xbe658a70	-0.22416091
51	0xbe44362c	-0.1916129
52	0xbe4552dc	-0.1926989
53	0xbe20e049	-0.15710558
54	0xbe104017	-0.14086948
55	0xbe13677d	-0.14394946
56	0xbd2d301b	-0.042282205
57	0x3c5d2d04	0.013499502
58	0xbe7e162c	-0.24813145
59	0xbe7aa5a9	-0.24477257
60	0xbe87398d	-0.26411095
61	0xbeb50bb2	-0.35360485
62	0xbe47a466	-0.19496307
63	0xbe0364e0	-0.1283145
64	0x3db2a743	0.08723309
65	0xbef1f4ee	-0.4725718
66	0xbea09e02	-0.3137055
67	0xbe1f57de	-0.15560862
68	0x3dca7717	0.09885996
69	0xbe14ca50	-0.14530301
70	0xbe46db1b	-0.1941952
71	0xbe54b372	-0.20771578
72	0xbe3cc372	-0.18433931
73	0xbee31ad1	-0.44356397
74	0x3d4b98d1	0.049706284
75	0xbd04cf4b	-0.032424252
76	0xbe4494b7	-0.19197355
77	0xbe14fad7	-0.14548813
78	0xbe60d46c	-0.21956033
79	0xbdf36bf4	-0.11885825
80	0xbdd74993	-0.1051208
81	0xbdffeaae	-0.124959335
82	0xbe23169c	-0.15926594
83	0xbe2b3f8d	-0.16723461
84	0xbeac171b	-0.33611378
85	0xbed79068	-0.4210236
86	0xbdc5629a	-0.096379474
87	0x3ddd738e	0.10813056
88	0xbe1e37fa	-0.15451041
89	0xbe3fefc7	-0.18743812
90	0xbd8a5d98	-0.06756133
91	0xbe64bb19	-0.22336997
92	0xbf0c680d	-0.5484627
93	0xbd1a1d39	-0.037625525
94	0xbedf21ff	-0.43580624
95	0xbe87b001	-0.26501468
96	0xbede4838	-0.43414474
97	0x3d4d467b	0.050116044
98	0xbe9cd9e0	-0.30634975
99	0xbe074273	-0.13208942
100	0x3dacdfff	0.08441161
101	0xbe636291	-0.22205569
102	0xbeab5bc7	-0.33468458
103	0xbe6c1154	-0.23053485
104	0xbd4850c9	-0.048905168
105	0xbec56ce8	-0.3855965
106	0xbee8df23	-0.4548274
107	0xbe288a83	-0.16459088
108	0xbe918c4f	-0.2842736
109	0xbe468e0f	-0.19390129
110	0xbeb7b6de	-0.35881704
111	0xbeca9da4	-0.39573395
112	0xbed83e80	-0.42235184
113	0xbe77e698	-0.24209058
114	0xbdd26771	-0.10273636
115	0xbe4046b7	-0.18776976
116	0xbe15571a	-0.14584008
117	0xbebc1da1	-0.36741355
118	0xbd8d5e50	-0.06902754
119	0xbdbcc579	-0.092173524
120	0xbec5bce4	-0.38620675
121	0xbe6941b8	-0.22778976
122	0xbe12d283	-0.14338116
123	0xbd948c83	-0.07253363
124	0xbea2101f	-0.31652924
125	0xbe6798f6	-0.22616944
126	0xbe70dfb2	-0.23522833
127	0xbe4300e4	-0.19043308
128	0xbd9a10c4	-0.07522729
129	0xbdd82f18	-0.105558574
130	0xbe37a390	-0.17933488
131	0x3e29bc4f	0.1657574
132	0xbce94d17	-0.028479142
133	0xbebb03bf	-0.36526296
134	0xbdbb112b	-0.09134134
135	0xbe2974b8	-0.16548431
136	0xbe80e101	-0.25171664
137	0xbe38db4e	-0.18052408
138	0xbeeda810	-0.46417284
139	0xbee1a24a	-0.4406913
140	0xbe66693d	-0.22501083
141	0xbeec341d	-0.4613351
142	0xbf1d5465	-0.614569
143	0xbe80a3cb	-0.25124964
144	0xbec856fb	-0.3912886
145	0xbe973aa1	-0.29536918
146	0xbe6473b8	-0.22309768
147	0xbe28b689	-0.16475882
148	0x3cd36ad8	0.025807783
149	0xbdeafa48	-0.114735186
150	0xbe36c3e2	-0.17848161
151	0xbe61f5be	-0.220664
152	0xbde4a8b8	-0.11164993
153	0xbe0e48cb	-0.13894956
154	0xbe81f5ef	-0.25382945
155	0xbe50239b	-0.20326082
156	0xbdbd0479	-0.09229369
157	0x3c845dd9	0.016158031
158	0xbed232e9	-0.41054466
159	0xbe032e91	-0.12810732
160	0xbdb1a7df	-0.08674597
161	0xbca769ea	-0.020436246
162	0xbeeb4ae2	-0.4595557
163	0xbb8b02e7	-0.0042422893
164	0xbd3bbd0e	-0.045834593
165	0xbe16b810	-0.14718652
166	0xbed6a27a	-0.41920835
167	0x3c94d2fb	0.01816701
168	0xbdf0f317	-0.11765116
169	0xbdff51d0	-0.12466776
170	0x3c27c297	0.010239265
171	0xbeccf532	-0.4003082
172	0xbe5756bb	-0.21029179
173	0xbcdb4343	-0.026765471
174	0xbf1cb398	-0.6121154
175	0xbc1bbc50	-0.009505346
176	0xbf12fb71	-0.5741492
177	0xbe051354	-0.12995654
178	0xbec5c506	-0.3862688
179	0xbd81e4e7	-0.06342488
180	0xbe9aa3e6	-0.3020317
181	0xbe909599	-0.28239134
182	0xbeaf0e8a	-0.3419078
183	0xbe80fb03	-0.25191507
184	0xbe4f8fce	-0.20269701
185	0xbee07e95	-0.43846574
186	0xbe3ea38c	-0.18617076
187	0xbef6a32a	-0.4817136
188	0xbd4ca572	-0.04996247
189	0xbee05683	-0.43816003
190	0xbe3f4548	-0.18678772
191	0xbee005dd	-0.43754473
192	0xbe5a1b90	-0.21299577
193	0x3d2357e5	0.039878745
194	0xbe4e0ae7	-0.20121346
195	0xbec5f394	-0.38662398
196	0xbedf5df7	-0.43626377
197	0xbe37998c	-0.17929667
198	0xbdb20744	-0.08692792
199	0xbf37fa9f	-0.7186679
200	0xbe053cb4	-0.13011438
201	0xbe1a09bd	-0.15042777
202	0x3d1842f5	0.03717323
203	0xbe528d11	-0.20561625
204	0xbc0f2f27	-0.008739269
205	0xbe93e289	-0.2888377
206	0x3c46b972	0.012129175
207	0x3de1e6b4	0.11030331
208	0xbee2717c	-0.44227207
209	0xbe8403a8	-0.2578404
210	0xbe6a2214	-0.22864562
211	0xbe53101c	-0.20611614
212	0xbd7ddce4	-0.061978236
213	0xbe6aac89	-0.2291738
214	0x3c80787e	0.015682455
215	0xbef2fbe0	-0.4745779
216	0xbd91269c	-0.07087442
217	0xbe9fecb5	-0.3123528
218	0xbe20f4b6	-0.1571835
219	0xbe909165	-0.28235927
220	0xbe68bbba	-0.22727862
221	0xbe0da4bf	-0.13832377
222	0xbe001eaf	-0.12511705
223	0xbe5e7d2b	-0.21727435
224	0xbe82679c	-0.25469673
225	0x3e38e521	0.18056156
226	0xbe29d7e0	-0.16586256
227	0xbedd83ae	-0.43264526
228	0xbe1964f6	-0.1497992
229	0xbdbe3ed2	-0.09289326
230	0x3da9fb2d	0.08299861
231	0xbe960cec	-0.29306734
232	0xbe4a3949	-0.19748415
233	0xbdfe2581	-0.12409497
234	0xbe5af1c4	-0.21381289
235	0xbe3a7c6f	-0.1821153
236	0xbdc95111	-0.09829915
237	0xbe865d9e	-0.262433
238	0xbe53e2c8	-0.20691979
239	0xbe34b514	-0.17647201
240	0xbf05afd6	-0.5222143
241	0x3d2a0edb	0.041518074
242	0xbef33637	-0.475023
243	0xbe53676d	-0.20644923
244	0xbda91ca0	-0.08257413
245	0xbebd1cdb	-0.36936077
246	0xbee63e97	-0.44969627
247	0x3e04f9bd	0.12985893
248	0xbee12b2d	-0.43978253
249	0xbd8e3ee1	-0.06945587
250	0xbe0f5746	-0.13998136
251	0xbe42975f	-0.19003056
252	0xbd76f07d	-0.06028794
253	0xbe925321	-0.28579047
254	0xbe90ed08	-0.2830584
255	0xbec0b1a6	-0.37635535

arith.constant1 f4 [6, 64]
0	0xbe3f9208	-0.1870805
1	0xbe714380	-0.23560905
2	0xbf6a5aa1	-0.9154454
3	0xbdff063f	-0.12452363
4	0x3e091aa9	0.13389076
5	0xbe6f9524	-0.23396736
6	0x3e715d67	0.23570786
7	0xbe23306c	-0.1593644
8	0xbe68c715	-0.22732194
9	0x3e24e49b	0.16102831
10	0xbec9ee39	-0.39439562
11	0xbf05e748	-0.5230603
12	0x3c9b1855	0.0189325
13	0xbe7c0e33	-0.24614792
14	0xbd03f67c	-0.032217488
15	0x3e1ddf50	0.15417218
16	0x3dc9091e	0.09816192
17	0xbe66e4d6	-0.22548231
18	0x3c12920c	0.008945953
19	0xbe8259bd	-0.2545909
20	0xbcc835e7	-0.024439765
21	0xbdc41740	-0.09574747
22	0xbe99ce81	-0.30040362
23	0x3e985835	0.29754797
24	0xbe786c6a	-0.24260107
25	0xbeac4099	-0.33643034
26	0xbe41ebc7	-0.18937598
27	0xbea066ef	-0.31328532
28	0xbe3930a4	-0.18084961
29	0x3b8761cf	0.0041315327
30	0xbe935207	-0.2877352
31	0xbe43daa4	-0.19126374
32	0xbe3418ba	-0.17587557
33	0xbe3a7fb0	-0.18212771
34	0x3e46b683	0.1940556
35	0xbe4cee5f	-0.20012806
36	0xbebde407	-0.37088034
37	0xbd73c643	-0.05951525
38	0x3d9af2c3	0.075658344
39	0xbe869557	-0.26285812
40	0x3c2b17b9	0.010442668
41	0xbec835a8	-0.39103436
42	0x3e53207b	0.20617859
43	0xbe668087	-0.22509967
44	0xbe942a96	-0.2893874
45	0x3ca52bd3	0.020162499
46	0x3e61c73d	0.2204866
47	0xbd8123e0	-0.06305671
48	0x3d57a650	0.052648842
49	0xbe11d25e	-0.14240405
50	0x3d444511	0.04791743
51	0x3e656b60	0.22404242
52	0x3dceb1fb	0.10092541
53	0xbf040dbc	-0.51583457
54	0xbcf96a7c	-0.030446284
55	0x3e3b3cc2	0.18284896
56	0xbe190140	-0.14941883
57	0x3e27b373	0.16377048
58	0xbe90e1ee	-0.2829737
59	0xbe8ae33e	-0.27126497
60	0xbf8846a1	-1.0646554
61	0xbe132e26	-0.14373073
62	0xbbe11450	-0.0068688765
63	0xbdfc14df	-0.12308668
64	0x3bdf7139	0.006818917
65	0xbdb63934	-0.088976294
66	0xbed27407	-0.41104147
67	0xbe4565a1	-0.1927705
68	0xbcbc7106	-0.023003113
69	0xbe3bcf96	-0.18340907
70	0x3e424094	0.18969947
71	0xbe93aa60	-0.28840923
72	0xbe706544	-0.2347613
73	0x3de0c54c	0.109751314
74	0xbf14bb58	-0.58098364
75	0xbdc299c8	-0.09501988
76	0x3c4eec75	0.012629618
77	0xbc870bce	-0.016485121
78	0x3dd5f9bb	0.10448023
79	0xbc0564e8	-0.008141734
80	0x3d997ec6	0.07494883
81	0xbd46da9b	-0.048548322
82	0xbe9d2b49	-0.30697086
83	0xbebacbe7	-0.3648369
84	0xbe6f9b5f	-0.23399113
85	0xbd1497b9	-0.036277507
86	0xbea9a3fd	-0.33132926
87	0x3e48a8d0	0.19595647
88	0x3ce6e1d6	0.028183859
89	0x3e434ff9	0.19073476
90	0xbd4a98ff	-0.049462315
91	0xbe136e57	-0.1439756
92	0x3cdadfd2	0.026718054
93	0xbde10ecc	-0.109891504
94	0xbe9cc803	-0.30621347
95	0xbec6b2d7	-0.3880832
96	0xbe592c38	-0.21208274
97	0x3e0ccce8	0.1375004
98	0x3e41276e	0.18862697
99	0xbf133f6b	-0.57518643
100	0xbd7bcb0a	-0.06147293
101	0x3d809ff5	0.062805094
102	0x3ccae6b5	0.024768213
103	0xbe7dd351	-0.24787642
104	0xbe14ebbb	-0.14543049
105	0xbe0e443f	-0.13893221
106	0x3e640719	0.22268333
107	0xbe6076d2	-0.21920326
108	0xbcf589a2	-0.029972855
109	0xbdea7ebd	-0.11449955
110	0x3e54ec62	0.20793298
111	0x3d9b7da7	0.07592326
112	0x3d614344	0.05499579
113	0x3e1514ec	0.14558762
114	0x3e44b70f	0.19210456
115	0x3e4006fd	0.18752666
116	0xbd1c1489	-0.03810552
117	0xbf476ecb	-0.7790343
118	0x3dee54d1	0.11637271
119	0x3e4f17d2	0.2022393
120	0xbd0b07fa	-0.033943154
121	0x3df11206	0.11771016
122	0x3e2c88bd	0.16849037
123	0xbe9624d6	-0.2932498
124	0xbed36b91	-0.41293004
125	0xbdb0c020	-0.08630395
126	0x3cbb81c5	0.022889027
127	0xbed8fa20	-0.4237833
128	0xbeea85ed	-0.45805302
129	0x3e2ce5c1	0.16884519
130	0xbdb9e15f	-0.09076189
131	0x3e3d23f1	0.18470742
132	0x3e2d23ec	0.16908234
133	0xbe792ac4	-0.2433272
134	0xbf1f3af2	-0.6219932
135	0x3e167de7	0.14696465
136	0x3c2b62f5	0.010460605
137	0x3c17f4fc	0.009274717
138	0x3e3c8447	0.18409835
139	0xbe76b814	-0.24093658
140	0xbe189606	-0.1490098
141	0xbf13ee0f	-0.57785124
142	0xbe94103c	-0.28918636
143	0x3e0672c6	0.1312972
144	0x3dfe7030	0.12423742
145	0x3e7127ff	0.23550414
146	0x3e61f9ab	0.22067897
147	0x3e0b4d25	0.13603647
148	0xbe7e206d	-0.24817057
149	0x3e27bd47	0.16380797
150	0x3dbf5393	0.093421124
151	0xbea9e0b3	-0.33179244
152	0x3d0f55d0	0.034993947
153	0xbe6d9c62	-0.23204187
154	0xbfb122f8	-1.3838797
155	0xbdb8087c	-0.08985993
156	0xbe8d570e	-0.2760548
157	0xbd0df675	-0.034658868
158	0x3e3f15f8	0.18660724
159	0x3df39aa6	0.11894731
160	0x3d9f859b	0.07789155
161	0xbf60c666	-0.8780273
162	0xbe5c4529	-0.21510758
163	0x3e31d303	0.17365651
164	0xbeb09a44	-0.34492695
165	0x3e6defff	0.23236082
166	0xbdac2917	-0.08406275
167	0xbe042011	-0.12902857
168	0x3e42c58c	0.1902067
169	0xbe6536e3	-0.22384219
170	0xbe698a22	-0.228066
171	0x3d848741	0.0647111
172	0xbd69f000	-0.057113647
173	0xbd9ef237	-0.077610426
174	0xbd8a43d2	-0.06751217
175	0xbf1bc5b2	-0.60848534
176	0x3d6f7fee	0.058471613
177	0x3c02a1b8	0.007973127
178	0xbf53b59f	-0.82699007
179	0xbdd3bcdb	-0.10338756
180	0xbe171052	-0.1475232
181	0x3e69f034	0.22845536
182	0x3e009e16	0.12560305
183	0xbd9c098a	-0.07619007
184	0xbec1f6c0	-0.37883568
185	0xbe5ce7ce	-0.21572801
186	0xbec47049	-0.38366917
187	0x3e7c7455	0.24653752
188	0xbee1aeac	-0.44078577
189	0xbea031a9	-0.31287888
190	0xbdd4b304	-0.10385707
191	0xbea845a7	-0.3286564
192	0xbbc0a4a0	-0.005879
193	0xbe3774be	-0.17915627
194	0x3e1a4646	0.1506587
195	0xbecc2d94	-0.39878523
196	0xbdfa02bb	-0.12207552
197	0xbd340f73	-0.043960046
198	0x3c13c356	0.00901874
199	0xbecabb97	-0.39596245
200	0x3b79d981	0.0038124027
201	0xbe5682b4	-0.20948297
202	0x3e143d3e	0.14476487
203	0x3e8fb7e9	0.2807
204	0x3d04b9ad	0.032403637
205	0xbe17e8ee	-0.1483495
206	0xbd2fb4a3	-0.042896878
207	0xbd46cbe0	-0.048534274
208	0xbe30cd52	-0.17265823
209	0x3e431c68	0.19053805
210	0x3e473753	0.19454698
211	0xbebd5ffe	-0.369873
212	0x3e2e841a	0.1704258
213	0x3e00e150	0.1258595
214	0xbc95717f	-0.018242596
215	0x3e24cf6d	0.16094752
216	0x3df5a3cd	0.11994133
217	0x3e3c59c0	0.18393612
218	0xbd9b0402	-0.07569124
219	0x3d816926	0.063188836
220	0x3d1dec1d	0.038555253
221	0x3d6c31b3	0.057664584
222	0xbce987f8	-0.028507218
223	0x3e1a1b66	0.15049514
224	0x3d9293fb	0.07157131
225	0x3e5be1be	0.21472833
226	0xbdf59afc	-0.119924515
227	0xbeacdf5b	-0.33764157
228	0x3e7d476e	0.2473428
229	0x3db18012	0.086670056
230	0x3d892e62	0.066983
231	0x3e9073da	0.28213388
232	0x3d81213c	0.06305167
233	0x3dd0c784	0.101943046
234	0x3e4e8eaf	0.20171617
235	0x3cb96a41	0.022633674
236	0x3dfa06c1	0.122083195
237	0xbd52072c	-0.05127637
238	0xbdc8cd17	-0.09804743
239	0x3dcb26f9	0.09919543
240	0xbeb1dd71	-0.3473926
241	0x3e024472	0.12721422
242	0x3e4b9e59	0.19884624
243	0xbe67562b	-0.22591464
244	0x3d83d296	0.064366505
245	0xbd84e96f	-0.064898364
246	0x3e42f408	0.19038403
247	0x3e359ee2	0.1773639
248	0xbe644058	-0.2229017
249	0x3e1851cb	0.14874952
250	0x3e01fc4b	0.12693898
251	0x3e71c9db	0.23612158
252	0x3da5e136	0.08099596
253	0x3daefab1	0.08543909
254	0x3e24edd0	0.16106343
255	0xbd9ef8b2	-0.077622786

arith.constant2 f4 [6]
0	0xbe39513f	-0.18097399
1	0x3ce490cf	0.027901081
2	0xbed5fa36	-0.41792458
3	0xbde262fb	-0.11054035
4	0x3dc18a77	0.09450238
5	0x3f0164cf	0.50544447

arith.constant3 f4 [128]
0	0x3f3c7288	0.7361226
1	0xbe8a60d0	-0.27026987
2	0xc0093083	-2.143586
3	0x3ddb110a	0.10696609
4	0x40013652	2.0189404
5	0x4017874c	2.3676329
6	0x404e3d9c	3.2225103
7	0x3f4f5da2	0.8100225
8	0x4077d97f	3.87265
9	0x3fcb0fc0	1.5864182
10	0x3fbc3282	1.4702914
11	0xbb774b79	-0.0037734194
12	0x4020688a	2.5063806
13	0xc024c71f	-2.5746534
14	0xbea57caa	-0.32321674
15	0x3faed103	1.3657535
16	0x4000742a	2.00709
17	0x3f16f406	0.589661
18	0x3fe12514	1.758944
19	0x3d7f9c28	0.06240478
20	0x3ef85b14	0.48506987
21	0xbf4c0ecc	-0.7971008
22	0xbf930ee2	-1.1488917
23	0xc0517d90	-3.2732887
24	0x3e676b5c	0.22599548
25	0x3f56ef49	0.8395887
26	0x3f7a347c	0.97736335
27	0x403295a5	2.7903836
28	0x3e54f7b2	0.20797613
29	0x3f8ff33a	1.1246102
30	0x3fc33070	1.5249157
31	0x3ff8bd80	1.9432831
32	0xc027510b	-2.6143215
33	0x3e873cce	0.26413578
34	0x3f2c5367	0.6731476
35	0xbeb3e1c0	-0.3513317
36	0x40078122	2.1172566
37	0xbe165675	-0.14681418
38	0x3f51c1cd	0.8193634
39	0x3eb24e29	0.34825256
40	0x3fb65c0e	1.4246843
41	0xbe22a3c8	-0.1588279
42	0xbf38544c	-0.72003627
43	0x3f31148d	0.69171983
44	0xbd92ae04	-0.07162097
45	0x3f9b8592	1.2150137
46	0x3fbf0c10	1.4925556
47	0x4017f236	2.3741584
48	0x3fc103c7	1.5079278
49	0x3fb483f2	1.4102767
50	0x408567f5	4.16894
51	0x406ccf35	3.700147
52	0x3fc750b9	1.557151
53	0x3fb886d8	1.4416151
54	0x3e8f92c6	0.28041667
55	0xc032bf3c	-2.792922
56	0x40213d88	2.5193806
57	0x40745cce	3.8181643
58	0xc00e3670	-2.2220726
59	0xbf15b5cc	-0.58480525
60	0xbf6e779a	-0.9315125
61	0x3f097d1a	0.53706515
62	0xbf5e5029	-0.86841065
63	0x3fa11083	1.2583164
64	0x3ef87ff0	0.4853511
65	0x4002cd4c	2.0437803
66	0x3f2c0b9a	0.672052
67	0xbf80d940	-1.00663
68	0x3f76e4ad	0.9644268
69	0x400a9a43	2.1656654
70	0xbfe0bf4d	-1.755838
71	0xbeaad2ad	-0.33363858
72	0x3e17edf6	0.14836869
73	0x403d180d	2.954593
74	0x3fa33128	1.2749376
75	0x3ec69658	0.38786578
76	0x3e17b25f	0.14814137
77	0xc0754d26	-3.8328338
78	0x3f878516	1.058749
79	0xc075a191	-3.8379862
80	0x3f169526	0.5882133
81	0x40370ba4	2.8600855
82	0x3fc3af27	1.5287827
83	0x3eeffb46	0.46871394
84	0x3f97d323	1.1861309
85	0x3fe87d0d	1.8163162
86	0xbf819360	-1.01231
87	0x3ec35a10	0.3815465
88	0x406d4d57	3.7078454
89	0x3f8086a0	1.0041084
90	0x3f9aba67	1.2088135
91	0x405b2e4a	3.4247003
92	0x3fd2e421	1.647587
93	0x3f233472	0.637519
94	0x402dcd97	2.7156732
95	0x3f02332c	0.5085933
96	0x3f124b03	0.5714571
97	0x3ed7c879	0.42145136
98	0x3f606713	0.8765728
99	0x40563040	3.346695
100	0x3e4d2e27	0.20037137
101	0xbf9b9871	-1.2155896
102	0x3f80adc5	1.005303
103	0x3df7ea1f	0.12105202
104	0x3fe8df43	1.8193134
105	0x3f9d1b5a	1.2273972
106	0x40277912	2.6167645
107	0x3ec25c08	0.3796084
108	0xbe78fae8	-0.24314463
109	0xc038e2c0	-2.8888397
110	0xbde575bc	-0.11204097
111	0x4084f509	4.1549115
112	0x3f8090eb	1.0044225
113	0x4030466c	2.7542982
114	0xc05bd9f3	-3.4351776
115	0x4007d48a	2.1223474
116	0x40030f22	2.0477986
117	0x3ebaa179	0.3645132
118	0x3fbb35eb	1.462583
119	0x3f927180	1.1440887
120	0x3f491b29	0.7855707
121	0x3b3659e2	0.002782457
122	0xc0575a7f	-3.3648984
123	0x3fc20e8b	1.5160688
124	0xc01cb5af	-2.448589
125	0x3f8ada23	1.084782
126	0x4031c1b7	2.7774484
127	0xbe0dd204	-0.13849646

arith.constant4 f4 [64]
0	0x3fec9fc5	1.8486258
1	0x3eb8bed1	0.3608308
2	0x3f3b41eb	0.7314746
3	0xbfe94c0f	-1.8226336
4	0x3cfaafa4	0.03060133
5	0x3f84c6ee	1.0373209
6	0x407790c0	3.8682098
7	0xbfe2ecdc	-1.7728534
8	0xbf09770a	-0.53697264
9	0x3fd7b823	1.6853069
10	0x3fa92d70	1.3216991
11	0x3f35db50	0.7103777
12	0xc098ae09	-4.7712445
13	0x4020b030	2.5107536
14	0x3ea55f3f	0.3229923
15	0x3e01db9d	0.12681432
16	0x3fb87f5c	1.4413867
17	0x402fa544	2.744462
18	0x401a9b66	2.4157348
19	0xc005b70d	-2.0892975
20	0x404f0a5e	3.2350078
21	0x3fe3197a	1.774215
22	0x3fc2d0f2	1.5220015
23	0x402e8a70	2.7271996
24	0xbf05fd4e	-0.5233964
25	0x40088eaf	2.1337087
26	0x3fd07138	1.6284552
27	0x3e621c6e	0.22081158
28	0xbeeac9fc	-0.45857227
29	0xbf24684d	-0.6422165
30	0x3e37c8cd	0.17947693
31	0xbfae6cbc	-1.3626933
32	0xc05d8da5	-3.4617703
33	0x3ff53125	1.9155623
34	0x3febdddb	1.842708
35	0xc033693d	-2.8032982
36	0x3e45372c	0.19259328
37	0x3f932fbc	1.1498942
38	0xc04a1919	-3.1577818
39	0x3f9d7c7c	1.2303615
40	0xc0483854	-3.128438
41	0x3ff7384c	1.9314055
42	0xc08fad4b	-4.489904
43	0x3f47e927	0.7809014
44	0xbf140a80	-0.5782852
45	0x3ec9bfaa	0.3940404
46	0x3edb29d6	0.42805356
47	0x403a28d9	2.9087431
48	0x3ec2b688	0.38029885
49	0x3f0edf85	0.55809814
50	0x3fdc3db5	1.7206331
51	0xbc3e43e5	-0.011612867
52	0x3f1dac4b	0.61591023
53	0xbf946a0b	-1.1594862
54	0xc0733a4d	-3.8004334
55	0xc06c4369	-3.6916144
56	0x3f3cafa9	0.73705536
57	0x3fe27354	1.7691445
58	0x3fb823d8	1.4385939
59	0x3fe0c4f4	1.7560105
60	0x3f98f65f	1.1950186
61	0x3f8d32fa	1.1031182
62	0xc0944a6c	-4.6340847
63	0x3dff5740	0.124678135

tfl.pseudo_qconst i1 [64, 128]
0	0xfe	-2
1	0xfd	-3
2	0xfd	-3
3	0xf9	-7
4	0xed	-19
5	0xff	-1
6	0xfe	-2
7	0x01	1
8	0x08	8
9	0xb9	-71
10	0xf8	-8
11	0x1f	31
12	0x01	1
13	0xff	-1
14	0xfb	-5
15	0xf5	-11
16	0xf6	-10
17	0x00	0
18	0xf4	-12
19	0x00	0
20	0x01	1
21	0x05	5
22	0x09	9
23	0xfd	-3
24	0x03	3
25	0xfa	-6
26	0x0a	10
27	0xf5	-11
28	0xe7	-25
29	0xcb	-53
30	0xf7	-9
31	0x07	7
32	0x02	2
33	0xfc	-4
34	0x1b	27
35	0x81	-127
36	0x0a	10
37	0xf9	-7
38	0x00	0
39	0x01	1
40	0x08	8
41	0x08	8
42	0x0c	12
43	0xff	-1
44	0x20	32
45	0xbc	-68
46	0x10	16
47	0xf3	-13
48	0xf2	-14
49	0xf6	-10
50	0xf6	-10
51	0xf1	-15
52	0xf3	-13
53	0xfe	-2
54	0x0e	14
55	0x01	1
56	0xfd	-3
57	0x09	9
58	0x03	3
59	0x7a	122
60	0x41	65
61	0xff	-1
62	0xd9	-39
63	0x06	6
64	0x1c	28
65	0xf4	-12
66	0xfb	-5
67	0xfd	-3
68	0x03	3
69	0xf9	-7
70	0x02	2
71	0x05	5
72	0x16	22
73	0x0c	12
74	0xec	-20
75	0xff	-1
76	0xfc	-4
77	0xff	-1
78	0x17	23
79	0x03	3
80	0xf8	-8
81	0xf3	-13
82	0x09	9
83	0x17	23
84	0xfc	-4
85	0x00	0
86	0x0b	11
87	0xfc	-4
88	0xf9	-7
89	0xf5	-11
90	0xff	-1
91	0x06	6
92	0x05	5
93	0x1c	28
94	0xf0	-16
95	0xf9	-7
96	0xfe	-2
97	0x0c	12
98	0x0a	10
99	0x0b	11
100	0xfa	-6
101	0xff	-1
102	0xfa	-6
103	0x00	0
104	0x01	1
105	0xfc	-4
106	0x01	1
107	0x0a	10
108	0xf6	-10
109	0x01	1
110	0xfd	-3
111	0xf3	-13
112	0x01	1
113	0x04	4
114	0xfa	-6
115	0xf6	-10
116	0x02	2
117	0xfe	-2
118	0x00	0
119	0xf6	-10
120	0xfe	-2
121	0xfc	-4
122	0xff	-1
123	0x2a	42
124	0xf8	-8
125	0x13	19
126	0xfe	-2
127	0xfe	-2
128	0x01	1
129	0x00	0
130	0x00	0
131	0x02	2
132	0xfd	-3
133	0xfe	-2
134	0x02	2
135	0x03	3
136	0x05	5
137	0x03	3
138	0x06	6
139	0xfd	-3
140	0xfb	-5
141	0x00	0
142	0x00	0
143	0xfb	-5
144	0xf9	-7
145	0xfa	-6
146	0xfb	-5
147	0x00	0
148	0x01	1
149	0x00	0
150	0xff	-1
151	0x01	1
152	0x00	0
153	0x01	1
154	0xcf	-49
155	0xff	-1
156	0xf1	-15
157	0xfa	-6
158	0x02	2
159	0x04	4
160	0x00	0
161	0xfd	-3
162	0xf5	-11
163	0x81	-127
164	0x03	3
165	0xff	-1
166	0x01	1
167	0xfe	-2
168	0xf4	-12
169	0x01	1
170	0x02	2
171	0x01	1
172	0xfd	-3
173	0xff	-1
174	0xfb	-5
175	0xf7	-9
176	0x00	0
177	0xf5	-11
178	0x00	0
179	0xff	-1
180	0xf8	-8
181	0xff	-1
182	0x05	5
183	0x00	0
184	0xfc	-4
185	0x04	4
186	0x01	1
187	0x12	18
188	0xff	-1
189	0x01	1
190	0x02	2
191	0x01	1
192	0x03	3
193	0xfb	-5
194	0x01	1
195	0xff	-1
196	0xfd	-3
197	0x00	0
198	0xff	-1
199	0x0b	11
200	0x0a	10
201	0xfd	-3
202	0xff	-1
203	0x00	0
204	0xff	-1
205	0x00	0
206	0xe6	-26
207	0xff	-1
208	0x01	1
209	0x01	1
210	0xf7	-9
211	0xf3	-13
212	0x07	7
213	0xff	-1
214	0x00	0
215	0x00	0
216	0x00	0
217	0xf0	-16
218	0x00	0
219	0x02	2
220	0xf0	-16
221	0xff	-1
222	0xfe	-2
223	0x04	4
224	0x01	1
225	0x02	2
226	0xfd	-3
227	0xfd	-3
228	0xf7	-9
229	0xfd	-3
230	0x00	0
231	0x00	0
232	0xff	-1
233	0xfe	-2
234	0x02	2
235	0xfd	-3
236	0x01	1
237	0x00	0
238	0x00	0
239	0x02	2
240	0x00	0
241	0x07	7
242	0x01	1
243	0xff	-1
244	0x02	2
245	0x01	1
246	0xf9	-7
247	0x00	0
248	0x00	0
249	0xfe	-2
250	0x00	0
251	0x01	1
252	0x00	0
253	0xe9	-23
254	0xfa	-6
255	0xff	-1

tfl.pseudo_qconst1 i1 [128, 256]
0	0xfd	-3
1	0x01	1
2	0x0a	10
3	0xf6	-10
4	0xf2	-14
5	0x01	1
6	0x00	0
7	0xf5	-11
8	0xfb	-5
9	0x01	1
10	0x04	4
11	0x01	1
12	0xf9	-7
13	0x02	2
14	0xf9	-7
15	0xff	-1
16	0x9a	-102
17	0x03	3
18	0x01	1
19	0xff	-1
20	0xff	-1
21	0x02	2
22	0xf8	-8
23	0xfc	-4
24	0x01	1
25	0x01	1
26	0x05	5
27	0x00	0
28	0x81	-127
29	0xfa	-6
30	0xff	-1
31	0xfa	-6
32	0xfc	-4
33	0x00	0
34	0xff	-1
35	0xfc	-4
36	0xff	-1
37	0xff	-1
38	0x02	2
39	0x04	4
40	0xf8	-8
41	0xfc	-4
42	0x01	1
43	0xfe	-2
44	0x01	1
45	0xfd	-3
46	0x0b	11
47	0x05	5
48	0xfb	-5
49	0xfc	-4
50	0xfa	-6
51	0xfd	-3
52	0x0b	11
53	0x06	6
54	0x06	6
55	0x00	0
56	0x01	1
57	0xfe	-2
58	0x16	22
59	0xff	-1
60	0xfe	-2
61	0x04	4
62	0x03	3
63	0x06	6
64	0x08	8
65	0x00	0
66	0xf9	-7
67	0xfe	-2
68	0xff	-1
69	0x01	1
70	0x08	8
71	0xf9	-7
72	0x0c	12
73	0xfc	-4
74	0xff	-1
75	0xff	-1
76	0x0c	12
77	0xf8	-8
78	0xff	-1
79	0xff	-1
80	0x02	2
81	0x00	0
82	0xf9	-7
83	0x01	1
84	0xf5	-11
85	0xf5	-11
86	0x01	1
87	0xff	-1
88	0xff	-1
89	0x04	4
90	0x00	0
91	0x03	3
92	0x02	2
93	0x00	0
94	0xfd	-3
95	0x02	2
96	0xa7	-89
97	0xfe	-2
98	0xf9	-7
99	0xfc	-4
100	0xff	-1
101	0x07	7
102	0x02	2
103	0xeb	-21
104	0x01	1
105	0xf5	-11
106	0xbd	-67
107	0x05	5
108	0x02	2
109	0xf2	-14
110	0xfb	-5
111	0xfc	-4
112	0xff	-1
113	0x02	2
114	0x01	1
115	0xed	-19
116	0x02	2
117	0x04	4
118	0xfe	-2
119	0x01	1
120	0xf9	-7
121	0xfe	-2
122	0xfd	-3
123	0x03	3
124	0x00	0
125	0x03	3
126	0x00	0
127	0x08	8
128	0xff	-1
129	0xfe	-2
130	0x0e	14
131	0x01	1
132	0xfe	-2
133	0x02	2
134	0x04	4
135	0xfe	-2
136	0xfb	-5
137	0xff	-1
138	0xf6	-10
139	0xf9	-7
140	0xfc	-4
141	0x06	6
142	0xfa	-6
143	0xff	-1
144	0x06	6
145	0x22	34
146	0xf6	-10
147	0x08	8
148	0x00	0
149	0xff	-1
150	0x02	2
151	0xfd	-3
152	0xfe	-2
153	0x02	2
154	0x02	2
155	0x01	1
156	0xff	-1
157	0x02	2
158	0xff	-1
159	0xff	-1
160	0x02	2
161	0xfb	-5
162	0xf8	-8
163	0x06	6
164	0xfc	-4
165	0xfc	-4
166	0xf9	-7
167	0xfe	-2
168	0x00	0
169	0xfc	-4
170	0x01	1
171	0x00	0
172	0x01	1
173	0xfe	-2
174	0xec	-20
175	0xfe	-2
176	0xec	-20
177	0xff	-1
178	0xff	-1
179	0xfe	-2
180	0xf5	-11
181	0x1f	31
182	0xb9	-71
183	0x04	4
184	0x04	4
185	0xb4	-76
186	0x07	7
187	0xb9	-71
188	0x03	3
189	0xf5	-11
190	0x09	9
191	0x85	-123
192	0x10	16
193	0x01	1
194	0xf7	-9
195	0xd9	-39
196	0xfd	-3
197	0x01	1
198	0xfb	-5
199	0xc8	-56
200	0x02	2
201	0x0b	11
202	0xff	-1
203	0x08	8
204	0x00	0
205	0xfe	-2
206	0x00	0
207	0x00	0
208	0x8f	-113
209	0xf2	-14
210	0xfe	-2
211	0xfd	-3
212	0x02	2
213	0x04	4
214	0x07	7
215	0x01	1
216	0x00	0
217	0xfc	-4
218	0x06	6
219	0x19	25
220	0x03	3
221	0x00	0
222	0xfd	-3
223	0x14	20
224	0xf7	-9
225	0x00	0
226	0xfc	-4
227	0xf4	-12
228	0x00	0
229	0x02	2
230	0xfd	-3
231	0x00	0
232	0x0c	12
233	0xf6	-10
234	0xf3	-13
235	0xff	-1
236	0xfb	-5
237	0xf0	-16
238	0x05	5
239	0x02	2
240	0xfa	-6
241	0xff	-1
242	0x07	7
243	0x05	5
244	0xfd	-3
245	0xf3	-13
246	0xf6	-10
247	0x01	1
248	0x00	0
249	0x02	2
250	0xfc	-4
251	0xff	-1
252	0xfd	-3
253	0x00	0
254	0x04	4
255	0xff	-1

sequential_1_1/dense_4_1/MatMul i1 [256, 20]
0	0x3b	59
1	0x2b	43
2	0x1c	28
3	0x11	17
4	0x15	21
5	0xb9	-71
6	0x40	64
7	0x11	17
8	0x19	25
9	0x49	73
10	0x3b	59
11	0xe2	-30
12	0x03	3
13	0xdb	-37
14	0x7f	127
15	0x1a	26
16	0xe5	-27
17	0x4c	76
18	0x45	69
19	0xec	-20
20	0x08	8
21	0x24	36
22	0xbc	-68
23	0x01	1
24	0x11	17
25	0xea	-22
26	0x2c	44
27	0x11	17
28	0xd8	-40
29	0x11	17
30	0x04	4
31	0xec	-20
32	0xe0	-32
33	0x04	4
34	0x23	35
35	0x22	34
36	0x10	16
37	0xee	-18
38	0x81	-127
39	0x29	41
40	0x15	21
41	0xfb	-5
42	0x0b	11
43	0x0d	13
44	0xf9	-7
45	0x01	1
46	0x07	7
47	0xff	-1
48	0xfe	-2
49	0x02	2
50	0x04	4
51	0xff	-1
52	0x04	4
53	0xfc	-4
54	0xff	-1
55	0xfc	-4
56	0xff	-1
57	0xff	-1
58	0x81	-127
59	0x00	0
60	0xfc	-4
61	0xfe	-2
62	0x7f	127
63	0xfd	-3
64	0x01	1
65	0xff	-1
66	0x01	1
67	0xff	-1
68	0x01	1
69	0x02	2
70	0x01	1
71	0xfe	-2
72	0x03	3
73	0xfe	-2
74	0x17	23
75	0xfd	-3
76	0x01	1
77	0x04	4
78	0x16	22
79	0xfa	-6
80	0x06	6
81	0x00	0
82	0x36	54
83	0xef	-17
84	0xf5	-11
85	0x21	33
86	0x0b	11
87	0xe2	-30
88	0xe0	-32
89	0x33	51
90	0xfb	-5
91	0xf6	-10
92	0x0d	13
93	0x12	18
94	0xa6	-90
95	0xd7	-41
96	0x1d	29
97	0x4d	77
98	0x81	-127
99	0xeb	-21
100	0x1b	27
101	0x81	-127
102	0xa7	-89
103	0xa3	-93
104	0xeb	-21
105	0x9f	-97
106	0x5a	90
107	0xde	-34
108	0x1d	29
109	0x25	37
110	0x3a	58
111	0xa3	-93
112	0x0f	15
113	0xda	-38
114	0x00	0
115	0x12	18
116	0xe5	-27
117	0x44	68
118	0xbb	-69
119	0x49	73
120	0xfd	-3
121	0x45	69
122	0x81	-127
123	0x32	50
124	0x01	1
125	0xee	-18
126	0xf6	-10
127	0x1a	26
128	0x13	19
129	0xfc	-4
130	0xc6	-58
131	0x9a	-102
132	0x21	33
133	0x21	33
134	0xb1	-79
135	0x32	50
136	0x1e	30
137	0xfd	-3
138	0xce	-50
139	0x2c	44
140	0xf5	-11
141	0x0e	14
142	0xd5	-43
143	0xf2	-14
144	0x01	1
145	0x00	0
146	0x04	4
147	0xf6	-10
148	0xff	-1
149	0xff	-1
150	0xf1	-15
151	0xfb	-5
152	0x0c	12
153	0x10	16
154	0x0b	11
155	0xfe	-2
156	0xfe	-2
157	0x59	89
158	0x81	-127
159	0x01	1
160	0x02	2
161	0x24	36
162	0xdb	-37
163	0x00	0
164	0x00	0
165	0xe8	-24
166	0x86	-122
167	0xf4	-12
168	0x05	5
169	0x06	6
170	0xff	-1
171	0x02	2
172	0xfc	-4
173	0x09	9
174	0x10	16
175	0xba	-70
176	0x04	4
177	0x15	21
178	0x81	-127
179	0x07	7
180	0x04	4
181	0x17	23
182	0x17	23
183	0x45	69
184	0xff	-1
185	0x27	39
186	0x10	16
187	0xea	-22
188	0x04	4
189	0x2f	47
190	0xfd	-3
191	0x08	8
192	0x21	33
193	0xb7	-73
194	0xab	-85
195	0xeb	-21
196	0x4d	77
197	0xe0	-32
198	0x81	-127
199	0xed	-19
200	0x7f	127
201	0x19	25
202	0xc8	-56
203	0x0e	14
204	0xe5	-27
205	0x01	1
206	0x10	16
207	0x26	38
208	0xdc	-36
209	0xe5	-27
210	0x3b	59
211	0x43	67
212	0x3d	61
213	0xd6	-42
214	0xab	-85
215	0xfb	-5
216	0x03	3
217	0xce	-50
218	0x32	50
219	0x2b	43
220	0x04	4
221	0x2c	44
222	0x7f	127
223	0x47	71
224	0x2e	46
225	0x39	57
226	0x11	17
227	0x15	21
228	0xd1	-47
229	0xa2	-94
230	0x0d	13
231	0xf5	-11
232	0x61	97
233	0xeb	-21
234	0x13	19
235	0xd4	-44
236	0x60	96
237	0xba	-70
238	0xe7	-25
239	0xa2	-94
240	0x3d	61
241	0x40	64
242	0x03	3
243	0xc8	-56
244	0x0f	15
245	0x20	32
246	0x81	-127
247	0x0f	15
248	0xeb	-21
249	0x4f	79
250	0xf5	-11
251	0xc5	-59
252	0xe9	-23
253	0x08	8
254	0xfa	-6
255	0x9c	-100
